…
e, save_dir='/home/konglingbin/project/dota/CenterNet/src/lib/../../exp/ctdet/acblock_resnet18_dota10_1024', scale=0.4, scores_thresh=0.1, seed=317, shift=0.1, std=array([[[0.2886383 , 0.27408165, 0.27809834]]], dtype=float32), task='ctdet', test=False, test_scales=[1.0], trainval=False, val_intervals=5, vis_thresh=0.3, wh_weight=0.1)
==> initializing dota val data.
loading annotations into memory...
Done (t=0.34s)
creating index...
index created!
Loaded val 5297 samples
Creating model...
=> loading pretrained model https://download.pytorch.org/models/resnet18-5c106cde.pth
PoseResNet(
  (conv1): Conv2d(3, 64, kernel_size=(7, 7), stride=(2, 2), padding=(3, 3), bias=False)
  (bn1): BatchNorm2d(64, eps=1e-05, momentum=0.1, affine=True, track_running_stats=True)
  (relu): ReLU(inplace)
  (maxpool): MaxPool2d(kernel_size=3, stride=2, padding=1, dilation=1, ceil_mode=False)
  (layer1): Sequential(
    (0): BasicBlock(
      (relu): ReLU(inplace)
      (acblock1): ACBlock(
        (square_conv): Conv2d(64, 64, kernel_size=(3, 3), stride=(1, 1), padding=(1, 1), bias=False)
        (square_bn): BatchNorm2d(64, eps=1e-05, momentum=0.1, affine=True, track_running_stats=True)
        (ver_conv): Conv2d(64, 64, kernel_size=(3, 1), stride=(1, 1), padding=(1, 0), bias=False)
        (hor_conv): Conv2d(64, 64, kernel_size=(1, 3), stride=(1, 1), padding=(0, 1), bias=False)
        (ver_bn): BatchNorm2d(64, eps=1e-05, momentum=0.1, affine=True, track_running_stats=True)
        (hor_bn): BatchNorm2d(64, eps=1e-05, momentum=0.1, affine=True, track_running_stats=True)
        (left_diagonal_conv): left_diagonal_conv2d()
        (left_diagonal_bn): BatchNorm2d(64, eps=1e-05, momentum=0.1, affine=True, track_running_stats=True)
        (right_diagonal_conv): right_diagonal_conv2d()
        (right_diagonal_bn): BatchNorm2d(64, eps=1e-05, momentum=0.1, affine=True, track_running_stats=True)
      )
      (acblock2): ACBlock(
        (square_conv): Conv2d(64, 64, kernel_size=(3, 3), stride=(1, 1), padding=(1, 1), bias=False)
        (square_bn): BatchNorm2d(64, eps=1e-05, momentum=0.1, affine=True, track_running_stats=True)
        (ver_conv): Conv2d(64, 64, kernel_size=(3, 1), stride=(1, 1), padding=(1, 0), bias=False)
        (hor_conv): Conv2d(64, 64, kernel_size=(1, 3), stride=(1, 1), padding=(0, 1), bias=False)
        (ver_bn): BatchNorm2d(64, eps=1e-05, momentum=0.1, affine=True, track_running_stats=True)
        (hor_bn): BatchNorm2d(64, eps=1e-05, momentum=0.1, affine=True, track_running_stats=True)
        (left_diagonal_conv): left_diagonal_conv2d()
        (left_diagonal_bn): BatchNorm2d(64, eps=1e-05, momentum=0.1, affine=True, track_running_stats=True)
        (right_diagonal_conv): right_diagonal_conv2d()
        (right_diagonal_bn): BatchNorm2d(64, eps=1e-05, momentum=0.1, affine=True, track_running_stats=True)
      )
    )
    (1): BasicBlock(
      (relu): ReLU(inplace)
      (acblock1): ACBlock(
        (square_conv): Conv2d(64, 64, kernel_size=(3, 3), stride=(1, 1), padding=(1, 1), bias=False)
        (square_bn): BatchNorm2d(64, eps=1e-05, momentum=0.1, affine=True, track_running_stats=True)
        (ver_conv): Conv2d(64, 64, kernel_size=(3, 1), stride=(1, 1), padding=(1, 0), bias=False)
        (hor_conv): Conv2d(64, 64, kernel_size=(1, 3), stride=(1, 1), padding=(0, 1), bias=False)
        (ver_bn): BatchNorm2d(64, eps=1e-05, momentum=0.1, affine=True, track_running_stats=True)
        (hor_bn): BatchNorm2d(64, eps=1e-05, momentum=0.1, affine=True, track_running_stats=True)
        (left_diagonal_conv): left_diagonal_conv2d()
        (left_diagonal_bn): BatchNorm2d(64, eps=1e-05, momentum=0.1, affine=True, track_running_stats=True)
        (right_diagonal_conv): right_diagonal_conv2d()
        (right_diagonal_bn): BatchNorm2d(64, eps=1e-05, momentum=0.1, affine=True, track_running_stats=True)
      )
      (acblock2): ACBlock(
        (square_conv): Conv2d(64, 64, kernel_size=(3, 3), stride=(1, 1), padding=(1, 1), bias=False)
        (square_bn): BatchNorm2d(64, eps=1e-05, momentum=0.1, affine=True, track_running_stats=True)
        (ver_conv): Conv2d(64, 64, kernel_size=(3, 1), stride=(1, 1), padding=(1, 0), bias=False)
        (hor_conv): Conv2d(64, 64, kernel_size=(1, 3), stride=(1, 1), padding=(0, 1), bias=False)
        (ver_bn): BatchNorm2d(64, eps=1e-05, momentum=0.1, affine=True, track_running_stats=True)
        (hor_bn): BatchNorm2d(64, eps=1e-05, momentum=0.1, affine=True, track_running_stats=True)
        (left_diagonal_conv): left_diagonal_conv2d()
        (left_diagonal_bn): BatchNorm2d(64, eps=1e-05, momentum=0.1, affine=True, track_running_stats=True)
        (right_diagonal_conv): right_diagonal_conv2d()
        (right_diagonal_bn): BatchNorm2d(64, eps=1e-05, momentum=0.1, affine=True, track_running_stats=True)
      )
    )
  )
  (layer2): Sequential(
    (0): BasicBlock(
      (relu): ReLU(inplace)
      (downsample): Sequential(
        (0): Conv2d(64, 128, kernel_size=(1, 1), stride=(2, 2), bias=False)
        (1): BatchNorm2d(128, eps=1e-05, momentum=0.1, affine=True, track_running_stats=True)
      )
      (acblock1): ACBlock(
        (square_conv): Conv2d(64, 128, kernel_size=(3, 3), stride=(2, 2), padding=(1, 1), bias=False)
        (square_bn): BatchNorm2d(128, eps=1e-05, momentum=0.1, affine=True, track_running_stats=True)
        (ver_conv): Conv2d(64, 128, kernel_size=(3, 1), stride=(2, 2), padding=(1, 0), bias=False)
        (hor_conv): Conv2d(64, 128, kernel_size=(1, 3), stride=(2, 2), padding=(0, 1), bias=False)
        (ver_bn): BatchNorm2d(128, eps=1e-05, momentum=0.1, affine=True, track_running_stats=True)
        (hor_bn): BatchNorm2d(128, eps=1e-05, momentum=0.1, affine=True, track_running_stats=True)
        (left_diagonal_conv): left_diagonal_conv2d()
        (left_diagonal_bn): BatchNorm2d(128, eps=1e-05, momentum=0.1, affine=True, track_running_stats=True)
        (right_diagonal_conv): right_diagonal_conv2d()
        (right_diagonal_bn): BatchNorm2d(128, eps=1e-05, momentum=0.1, affine=True, track_running_stats=True)
      )
      (acblock2): ACBlock(
        (square_conv): Conv2d(128, 128, kernel_size=(3, 3), stride=(1, 1), padding=(1, 1), bias=False)
        (square_bn): BatchNorm2d(128, eps=1e-05, momentum=0.1, affine=True, track_running_stats=True)
        (ver_conv): Conv2d(128, 128, kernel_size=(3, 1), stride=(1, 1), padding=(1, 0), bias=False)
        (hor_conv): Conv2d(128, 128, kernel_size=(1, 3), stride=(1, 1), padding=(0, 1), bias=False)
        (ver_bn): BatchNorm2d(128, eps=1e-05, momentum=0.1, affine=True, track_running_stats=True)
        (hor_bn): BatchNorm2d(128, eps=1e-05, momentum=0.1, affine=True, track_running_stats=True)
        (left_diagonal_conv): left_diagonal_conv2d()
        (left_diagonal_bn): BatchNorm2d(128, eps=1e-05, momentum=0.1, affine=True, track_running_stats=True)
        (right_diagonal_conv): right_diagonal_conv2d()
        (right_diagonal_bn): BatchNorm2d(128, eps=1e-05, momentum=0.1, affine=True, track_running_stats=True)
      )
    )
    (1): BasicBlock(
      (relu): ReLU(inplace)
      (acblock1): ACBlock(
        (square_conv): Conv2d(128, 128, kernel_size=(3, 3), stride=(1, 1), padding=(1, 1), bias=False)
        (square_bn): BatchNorm2d(128, eps=1e-05, momentum=0.1, affine=True, track_running_stats=True)
        (ver_conv): Conv2d(128, 128, kernel_size=(3, 1), stride=(1, 1), padding=(1, 0), bias=False)
        (hor_conv): Conv2d(128, 128, kernel_size=(1, 3), stride=(1, 1), padding=(0, 1), bias=False)
        (ver_bn): BatchNorm2d(128, eps=1e-05, momentum=0.1, affine=True, track_running_stats=True)
        (hor_bn): BatchNorm2d(128, eps=1e-05, momentum=0.1, affine=True, track_running_stats=True)
        (left_diagonal_conv): left_diagonal_conv2d()
        (left_diagonal_bn): BatchNorm2d(128, eps=1e-05, momentum=0.1, affine=True, track_running_stats=True)
        (right_diagonal_conv): right_diagonal_conv2d()
        (right_diagonal_bn): BatchNorm2d(128, eps=1e-05, momentum=0.1, affine=True, track_running_stats=True)
      )
      (acblock2): ACBlock(
        (square_conv): Conv2d(128, 128, kernel_size=(3, 3), stride=(1, 1), padding=(1, 1), bias=False)
        (square_bn): BatchNorm2d(128, eps=1e-05, momentum=0.1, affine=True, track_running_stats=True)
        (ver_conv): Conv2d(128, 128, kernel_size=(3, 1), stride=(1, 1), padding=(1, 0), bias=False)
        (hor_conv): Conv2d(128, 128, kernel_size=(1, 3), stride=(1, 1), padding=(0, 1), bias=False)
        (ver_bn): BatchNorm2d(128, eps=1e-05, momentum=0.1, affine=True, track_running_stats=True)
        (hor_bn): BatchNorm2d(128, eps=1e-05, momentum=0.1, affine=True, track_running_stats=True)
        (left_diagonal_conv): left_diagonal_conv2d()
        (left_diagonal_bn): BatchNorm2d(128, eps=1e-05, momentum=0.1, affine=True, track_running_stats=True)
        (right_diagonal_conv): right_diagonal_conv2d()
        (right_diagonal_bn): BatchNorm2d(128, eps=1e-05, momentum=0.1, affine=True, track_running_stats=True)
      )
    )
  )
  (layer3): Sequential(
    (0): BasicBlock(
      (relu): ReLU(inplace)
      (downsample): Sequential(
        (0): Conv2d(128, 256, kernel_size=(1, 1), stride=(2, 2), bias=False)
        (1): BatchNorm2d(256, eps=1e-05, momentum=0.1, affine=True, track_running_stats=True)
      )
      (acblock1): ACBlock(
        (square_conv): Conv2d(128, 256, kernel_size=(3, 3), stride=(2, 2), padding=(1, 1), bias=False)
        (square_bn): BatchNorm2d(256, eps=1e-05, momentum=0.1, affine=True, track_running_stats=True)
        (ver_conv): Conv2d(128, 256, kernel_size=(3, 1), stride=(2, 2), padding=(1, 0), bias=False)
        (hor_conv): Conv2d(128, 256, kernel_size=(1, 3), stride=(2, 2), padding=(0, 1), bias=False)
        (ver_bn): BatchNorm2d(256, eps=1e-05, momentum=0.1, affine=True, track_running_stats=True)
        (hor_bn): BatchNorm2d(256, eps=1e-05, momentum=0.1, affine=True, track_running_stats=True)
        (left_diagonal_conv): left_diagonal_conv2d()
        (left_diagonal_bn): BatchNorm2d(256, eps=1e-05, momentum=0.1, affine=True, track_running_stats=True)
        (right_diagonal_conv): right_diagonal_conv2d()
        (right_diagonal_bn): BatchNorm2d(256, eps=1e-05, momentum=0.1, affine=True, track_running_stats=True)
      )
      (acblock2): ACBlock(
        (square_conv): Conv2d(256, 256, kernel_size=(3, 3), stride=(1, 1), padding=(1, 1), bias=False)
        (square_bn): BatchNorm2d(256, eps=1e-05, momentum=0.1, affine=True, track_running_stats=True)
        (ver_conv): Conv2d(256, 256, kernel_size=(3, 1), stride=(1, 1), padding=(1, 0), bias=False)
        (hor_conv): Conv2d(256, 256, kernel_size=(1, 3), stride=(1, 1), padding=(0, 1), bias=False)
        (ver_bn): BatchNorm2d(256, eps=1e-05, momentum=0.1, affine=True, track_running_stats=True)
        (hor_bn): BatchNorm2d(256, eps=1e-05, momentum=0.1, affine=True, track_running_stats=True)
        (left_diagonal_conv): left_diagonal_conv2d()
        (left_diagonal_bn): BatchNorm2d(256, eps=1e-05, momentum=0.1, affine=True, track_running_stats=True)
        (right_diagonal_conv): right_diagonal_conv2d()
        (right_diagonal_bn): BatchNorm2d(256, eps=1e-05, momentum=0.1, affine=True, track_running_stats=True)
      )
    )
    (1): BasicBlock(
      (relu): ReLU(inplace)
      (acblock1): ACBlock(
        (square_conv): Conv2d(256, 256, kernel_size=(3, 3), stride=(1, 1), padding=(1, 1), bias=False)
        (square_bn): BatchNorm2d(256, eps=1e-05, momentum=0.1, affine=True, track_running_stats=True)
        (ver_conv): Conv2d(256, 256, kernel_size=(3, 1), stride=(1, 1), padding=(1, 0), bias=False)
        (hor_conv): Conv2d(256, 256, kernel_size=(1, 3), stride=(1, 1), padding=(0, 1), bias=False)
        (ver_bn): BatchNorm2d(256, eps=1e-05, momentum=0.1, affine=True, track_running_stats=True)
        (hor_bn): BatchNorm2d(256, eps=1e-05, momentum=0.1, affine=True, track_running_stats=True)
        (left_diagonal_conv): left_diagonal_conv2d()
        (left_diagonal_bn): BatchNorm2d(256, eps=1e-05, momentum=0.1, affine=True, track_running_stats=True)
        (right_diagonal_conv): right_diagonal_conv2d()
        (right_diagonal_bn): BatchNorm2d(256, eps=1e-05, momentum=0.1, affine=True, track_running_stats=True)
      )
      (acblock2): ACBlock(
        (square_conv): Conv2d(256, 256, kernel_size=(3, 3), stride=(1, 1), padding=(1, 1), bias=False)
        (square_bn): BatchNorm2d(256, eps=1e-05, momentum=0.1, affine=True, track_running_stats=True)
        (ver_conv): Conv2d(256, 256, kernel_size=(3, 1), stride=(1, 1), padding=(1, 0), bias=False)
        (hor_conv): Conv2d(256, 256, kernel_size=(1, 3), stride=(1, 1), padding=(0, 1), bias=False)
        (ver_bn): BatchNorm2d(256, eps=1e-05, momentum=0.1, affine=True, track_running_stats=True)
        (hor_bn): BatchNorm2d(256, eps=1e-05, momentum=0.1, affine=True, track_running_stats=True)
        (left_diagonal_conv): left_diagonal_conv2d()
        (left_diagonal_bn): BatchNorm2d(256, eps=1e-05, momentum=0.1, affine=True, track_running_stats=True)
        (right_diagonal_conv): right_diagonal_conv2d()
        (right_diagonal_bn): BatchNorm2d(256, eps=1e-05, momentum=0.1, affine=True, track_running_stats=True)
      )
    )
  )
  (layer4): Sequential(
    (0): BasicBlock(
      (relu): ReLU(inplace)
      (downsample): Sequential(
        (0): Conv2d(256, 512, kernel_size=(1, 1), stride=(2, 2), bias=False)
        (1): BatchNorm2d(512, eps=1e-05, momentum=0.1, affine=True, track_running_stats=True)
      )
      (acblock1): ACBlock(
        (square_conv): Conv2d(256, 512, kernel_size=(3, 3), stride=(2, 2), padding=(1, 1), bias=False)
        (square_bn): BatchNorm2d(512, eps=1e-05, momentum=0.1, affine=True, track_running_stats=True)
        (ver_conv): Conv2d(256, 512, kernel_size=(3, 1), stride=(2, 2), padding=(1, 0), bias=False)
        (hor_conv): Conv2d(256, 512, kernel_size=(1, 3), stride=(2, 2), padding=(0, 1), bias=False)
        (ver_bn): BatchNorm2d(512, eps=1e-05, momentum=0.1, affine=True, track_running_stats=True)
        (hor_bn): BatchNorm2d(512, eps=1e-05, momentum=0.1, affine=True, track_running_stats=True)
        (left_diagonal_conv): left_diagonal_conv2d()
        (left_diagonal_bn): BatchNorm2d(512, eps=1e-05, momentum=0.1, affine=True, track_running_stats=True)
        (right_diagonal_conv): right_diagonal_conv2d()
        (right_diagonal_bn): BatchNorm2d(512, eps=1e-05, momentum=0.1, affine=True, track_running_stats=True)
      )
      (acblock2): ACBlock(
        (square_conv): Conv2d(512, 512, kernel_size=(3, 3), stride=(1, 1), padding=(1, 1), bias=False)
        (square_bn): BatchNorm2d(512, eps=1e-05, momentum=0.1, affine=True, track_running_stats=True)
        (ver_conv): Conv2d(512, 512, kernel_size=(3, 1), stride=(1, 1), padding=(1, 0), bias=False)
        (hor_conv): Conv2d(512, 512, kernel_size=(1, 3), stride=(1, 1), padding=(0, 1), bias=False)
        (ver_bn): BatchNorm2d(512, eps=1e-05, momentum=0.1, affine=True, track_running_stats=True)
        (hor_bn): BatchNorm2d(512, eps=1e-05, momentum=0.1, affine=True, track_running_stats=True)
        (left_diagonal_conv): left_diagonal_conv2d()
        (left_diagonal_bn): BatchNorm2d(512, eps=1e-05, momentum=0.1, affine=True, track_running_stats=True)
        (right_diagonal_conv): right_diagonal_conv2d()
        (right_diagonal_bn): BatchNorm2d(512, eps=1e-05, momentum=0.1, affine=True, track_running_stats=True)
      )
    )
    (1): BasicBlock(
      (relu): ReLU(inplace)
      (acblock1): ACBlock(
        (square_conv): Conv2d(512, 512, kernel_size=(3, 3), stride=(1, 1), padding=(1, 1), bias=False)
        (square_bn): BatchNorm2d(512, eps=1e-05, momentum=0.1, affine=True, track_running_stats=True)
        (ver_conv): Conv2d(512, 512, kernel_size=(3, 1), stride=(1, 1), padding=(1, 0), bias=False)
        (hor_conv): Conv2d(512, 512, kernel_size=(1, 3), stride=(1, 1), padding=(0, 1), bias=False)
        (ver_bn): BatchNorm2d(512, eps=1e-05, momentum=0.1, affine=True, track_running_stats=True)
        (hor_bn): BatchNorm2d(512, eps=1e-05, momentum=0.1, affine=True, track_running_stats=True)
        (left_diagonal_conv): left_diagonal_conv2d()
        (left_diagonal_bn): BatchNorm2d(512, eps=1e-05, momentum=0.1, affine=True, track_running_stats=True)
        (right_diagonal_conv): right_diagonal_conv2d()
        (right_diagonal_bn): BatchNorm2d(512, eps=1e-05, momentum=0.1, affine=True, track_running_stats=True)
      )
      (acblock2): ACBlock(
        (square_conv): Conv2d(512, 512, kernel_size=(3, 3), stride=(1, 1), padding=(1, 1), bias=False)
        (square_bn): BatchNorm2d(512, eps=1e-05, momentum=0.1, affine=True, track_running_stats=True)
        (ver_conv): Conv2d(512, 512, kernel_size=(3, 1), stride=(1, 1), padding=(1, 0), bias=False)
        (hor_conv): Conv2d(512, 512, kernel_size=(1, 3), stride=(1, 1), padding=(0, 1), bias=False)
        (ver_bn): BatchNorm2d(512, eps=1e-05, momentum=0.1, affine=True, track_running_stats=True)
        (hor_bn): BatchNorm2d(512, eps=1e-05, momentum=0.1, affine=True, track_running_stats=True)
        (left_diagonal_conv): left_diagonal_conv2d()
        (left_diagonal_bn): BatchNorm2d(512, eps=1e-05, momentum=0.1, affine=True, track_running_stats=True)
        (right_diagonal_conv): right_diagonal_conv2d()
        (right_diagonal_bn): BatchNorm2d(512, eps=1e-05, momentum=0.1, affine=True, track_running_stats=True)
      )
    )
  )
  (deconv_layers): Sequential(
    (0): ConvTranspose2d(512, 256, kernel_size=(4, 4), stride=(2, 2), padding=(1, 1), bias=False)
    (1): BatchNorm2d(256, eps=1e-05, momentum=0.1, affine=True, track_running_stats=True)
    (2): ReLU(inplace)
    (3): ConvTranspose2d(256, 256, kernel_size=(4, 4), stride=(2, 2), padding=(1, 1), bias=False)
    (4): BatchNorm2d(256, eps=1e-05, momentum=0.1, affine=True, track_running_stats=True)
    (5): ReLU(inplace)
    (6): ConvTranspose2d(256, 256, kernel_size=(4, 4), stride=(2, 2), padding=(1, 1), bias=False)
    (7): BatchNorm2d(256, eps=1e-05, momentum=0.1, affine=True, track_running_stats=True)
    (8): ReLU(inplace)
  )
  (hm): Sequential(
    (0): Conv2d(256, 64, kernel_size=(3, 3), stride=(1, 1), padding=(1, 1))
    (1): ReLU(inplace)
    (2): Conv2d(64, 15, kernel_size=(1, 1), stride=(1, 1))
  )
  (reg): Sequential(
    (0): Conv2d(256, 64, kernel_size=(3, 3), stride=(1, 1), padding=(1, 1))
    (1): ReLU(inplace)
    (2): Conv2d(64, 2, kernel_size=(1, 1), stride=(1, 1))
  )
  (wh): Sequential(
    (0): Conv2d(256, 64, kernel_size=(3, 3), stride=(1, 1), padding=(1, 1))
    (1): ReLU(inplace)
    (2): Conv2d(64, 2, kernel_size=(1, 1), stride=(1, 1))
  )
)
loaded /home/konglingbin/project/dota/CenterNet/exp/ctdet/acblock_resnet18_dota10_1024/model_best.pth, epoch 100
